…
         self.threshold = config.threshold
         self.num_links = config.num_links
 
@@ -647,6 +682,11 @@ class ITERForRelationExtraction(ITER):
             return_dict=False
         )[0]
 
+
+         # تطبيق طبقة Bracketing
+        start_logits, end_logits, type_logits = self.bracketing_layer(x)
+      
+
         lr_loss = self._is_span_forward(
             x,
             actions,
02/03/2025 17:23:18 - INFO - Seed = 42
02/03/2025 17:23:18 - INFO - Dataset = conll04
02/03/2025 17:23:22 - INFO - ITERForRelationExtraction(
  (model): BertModel(
    (embeddings): BertEmbeddings(
      (word_embeddings): Embedding(28996, 1024, padding_idx=0)
      (position_embeddings): Embedding(512, 1024)
      (token_type_embeddings): Embedding(2, 1024)
      (LayerNorm): LayerNorm((1024,), eps=1e-12, elementwise_affine=True)
      (dropout): Dropout(p=0.1, inplace=False)
    )
    (encoder): BertEncoder(
      (layer): ModuleList(
        (0-23): 24 x BertLayer(
          (attention): BertAttention(
            (self): BertSdpaSelfAttention(
              (query): Linear(in_features=1024, out_features=1024, bias=True)
              (key): Linear(in_features=1024, out_features=1024, bias=True)
              (value): Linear(in_features=1024, out_features=1024, bias=True)
              (dropout): Dropout(p=0.1, inplace=False)
            )
            (output): BertSelfOutput(
              (dense): Linear(in_features=1024, out_features=1024, bias=True)
              (LayerNorm): LayerNorm((1024,), eps=1e-12, elementwise_affine=True)
              (dropout): Dropout(p=0.1, inplace=False)
            )
          )
          (intermediate): BertIntermediate(
            (dense): Linear(in_features=1024, out_features=4096, bias=True)
            (intermediate_act_fn): GELUActivation()
          )
          (output): BertOutput(
            (dense): Linear(in_features=4096, out_features=1024, bias=True)
            (LayerNorm): LayerNorm((1024,), eps=1e-12, elementwise_affine=True)
            (dropout): Dropout(p=0.1, inplace=False)
          )
        )
      )
    )
    (pooler): BertPooler(
      (dense): Linear(in_features=1024, out_features=1024, bias=True)
      (activation): Tanh()
    )
  )
  (is_l): IsLeft(
    (dropout): Dropout(p=0.3, inplace=False)
    (gate): Linear(in_features=1024, out_features=4096, bias=False)
    (wi): Linear(in_features=1024, out_features=4096, bias=False)
    (wo): Linear(in_features=4096, out_features=1, bias=False)
    (act): GELUActivation()
  )
  (lr_score): IsSpan(
    (dropout): Dropout(p=0.3, inplace=False)
    (gate): Linear(in_features=2048, out_features=8192, bias=False)
    (wi): Linear(in_features=2048, out_features=8192, bias=False)
    (wo): Linear(in_features=8192, out_features=4, bias=False)
    (act): GELUActivation()
  )
  (bracketing_layer): BracketingLayer(
    (bracket_start): Linear(in_features=1024, out_features=1, bias=True)
    (bracket_end): Linear(in_features=1024, out_features=1, bias=True)
    (type_classifier): Linear(in_features=1024, out_features=4, bias=True)
  )
  (rr_score): IsLink(
    (dropout): Dropout(p=0.3, inplace=False)
    (gate): Linear(in_features=2048, out_features=8192, bias=False)
    (wi): Linear(in_features=2048, out_features=8192, bias=False)
    (wo): Linear(in_features=8192, out_features=5, bias=False)
    (act): GELUActivation()
  )
)
02/03/2025 17:23:22 - INFO - {
  "patience": 10,
  "num_epochs": 100,
  "max_epochs": 100,
  "lr_t5": 5e-05,
  "lr_iter": 0.0003,
  "lr_scheduler": "linear_with_warmup",
  "weight_decay": 0.1,
  "warmup_steps": 0.05,
  "task_weight_decay": 0.02,
  "task_warmup_steps": 0.01,
  "task_lr_scheduler": "linear_with_warmup",
  "activation_fn": "gelu",
…
